Algs/Labs-Federated-Learning/saved_models/final/MNIST-iid_FedAvg_plain_1_5_10_5_5_0.001.pth (torch, 32423 bytes, 2 tensors)

linear.weight f4 [10, 784]
00000000: 6cec dfbc 9024 8a3c 2360 ddbc 65a9 183c
00000010: d9de 0e3c fe88 bfbc 54e6 cd3c 9d76 1c3c
00000020: a011 4fbb 0513 0cbc 6ae9 e73b a021 88ba
00000030: 8a75 a43c 5259 d23c b236 6f3c fb13 92bc
00000040: 98b3 89bb df50 953c a539 09bd 82eb 7d3b
00000050: ed2f b7bc 806f fa3c fe8d 90bc 0227 ee3c
00000060: 00f0 34b9 3021 8d3b c491 cdbb 1798 8dbc
00000070: 3a62 ed3b 0319 a5bc 8284 4ebb b1de 0e3d
00000080: 6c82 633c fa8d 97bc 8552 b3bc 7c14 d53c
00000090: d908 3f3c 2ac7 36bc e052 cfba f64a e73c
000000a0: 366f c23c ee8b fa3c 68da b53c 40bb 1d3a
000000b0: a04e 453b 50ea be3c 4e92 97bc 802e 703c
000000c0: 6472 d4ba fdc8 9ebc d361 85bc 64f9 4e3c
000000d0: e88c 6a3c afec 08bd 3c91 0c3c fa17 03bd
000000e0: d1f8 32bb a2ca f53a 8490 c93b 76b5 6b3c
000000f0: 0a7e bb3c da48 db3c 4091 8a3b cd23 9e3c
00000100: 8437 453c 3100 97bb 62a2 56bc 40f8 adbc
00000110: 9375 ebbc 8e68 d53c c127 073d 40e2 df3a
00000120: 9b87 213c a3dc 843b f404 cd3b aef3 a83c
00000130: 4071 c03c 40b1 63bc 2be2 04bd 6ba7 bebc
00000140: afe1 063d 9e48 cdbb 90f6 eabc 3cc9 643c
00000150: 92f1 e7bc a600 d1bc 004b c9bc 8a3f c93c
00000160: b078 2c3b b84a bf3c ebe1 0bbd 0c93 d5bb
00000170: 5997 8f3c 7aa8 6b3c b25f 00bd 8eb9 49bc
00000180: c0fa 633a de2f fabb ffe5 0fbd c5fd 213c
00000190: fed9 24ba 8231 68bc 9ee8 813c 4cc3 f5bc
000001a0: 9ec8 d7bc a373 8abc 98a8 22bc 1146 bf3c
000001b0: c485 dc3b e0aa 78bc 43e9 e8bc 0ff0 073d
000001c0: 40bc 98ba 2135 8a3c 0258 c63a 902f 08bb
000001d0: 9495 c03c fe31 61bc 4b73 08bd aa17 dabc
000001e0: 4cec 09bd 160b d8bc a08d f5bc f452 3bbc
000001f0: 9469 3f3c 3206 113c f6be 8ebc bc98 ce3b
00000200: 2ae4 253d 9c95 103d cab8 643c d5d3 83bc
00000210: 8fb4 db3b 447c dbbc aa50 6cbc 183b 29bc
00000220: c2f1 0abd 30e2 cebc b000 df3b 6090 b3ba
00000230: 78cc d53c 34fa d93c 2cf0 e5bc bacc d53c
00000240: d9b9 bcbc 6029 6ebb 1c61 62bc 02a3 903c
00000250: 5e18 8e3c be19 823c b74c 0bbd ac83 aa3c
00000260: d3d3 1fbd 4cfc efbc ae4f 1bbd 18f8 11bc
00000270: 17a4 1a3d 552c 153d 449d b1bc a5b8 ac3a
00000280: 2f19 92bc ac59 583c 5760 8fbb 082a bdbc
00000290: f409 51bc 5cee 7fbc 3126 923c 2e16 ea3c
000002a0: c8ee 99bb 8167 1a3b a49a c3bc feda ad3c
000002b0: e048 c73b 9a0e aa3c fdc0 05bd fa6d 443c
000002c0: 234c 33bc e6ea 6abc 6efa d5bc 7059 febc
000002d0: b3d7 23bd 34ef a83a e9e8 e13b 85da e1bc
000002e0: b758 053c be3e 7cbc 8609 443c eb7b a93b
000002f0: 2ef8 253d 50e9 003d 9657 453b ce16 7c3c
00000300: 9523 0a3d 778e 01bd 88ae ce3b 462a f43c
00000310: c4d4 763c 50c3 1fbb 5ff0 0e3d a0e6 37bc
00000320: ee95 cfbc bc42 c4bc bcb1 823c c6ed c83c
00000330: 7129 613b 80d5 54bc cec9 0a3b 6cce fd3c
00000340: fa80 493d a070 0a39 4dfe 99bc 5e7c f7bb
00000350: 385c 733c 372c 78bc 1066 18bc aa87 3f3d
00000360: 720e c73c 6741 12bc 22f5 bcbc c5a3 0e3d
00000370: da3c af3c 5dd8 0d3d db44 0ebd 2576 0ebd
00000380: be5b ccbc ddf6 aebc f1a2 bebc cc1d 943c
00000390: 363c c3bc 1acc 903c 37d3 4c3c 5b35 8cbc
000003a0: ca25 cfbc 688f e7bc e602 213d 366a 803d
000003b0: d6d3 cd3b bf5b 0a3d 39be 2c3b 0e1f 383c
000003c0: dc97 c8bc cf1d 59bc 50c1 0a3c dd57 4d3c
000003d0: 3cef 5a3d 3dbd 2cbc 7edd 5b3c 0e19 d83c
000003e0: 0c3d bfbc 18d7 eb3c 1241 9cbc e079 64bc
000003f0: e2b1 cb3c 406a ca3a 162e 973c f3fc afbc
-0.027334414 0.016863137 -0.02702338 0.009317731 0.008720123 -0.023380753 0.025134243 0.009549764
-0.0031596199 -0.0085494565 0.0070773857 -0.0010385998 0.020075578 0.025677357 0.014600443 -0.017831793
-0.0042023174 0.018227039 -0.03350224 0.003874511 -0.02236172 0.030570745 -0.017645832 0.029071335
-0.00017255545 0.004306935 -0.00627348 -0.017284436 0.0072443755 -0.020153528 -0.0031512086 0.034880344
0.0138860755 -0.018500317 -0.021889934 0.026010744 0.011659824 -0.011155883 -0.0015817545 0.028233986
0.02373467 0.030584302 0.02219887 0.0006016977 0.0030106679 0.023305088 -0.01850238 0.014659524
-0.0016208407 -0.019382948 -0.016281998 0.012632702 0.014315821 -0.033428844 0.008579548 -0.032005288
-0.002730895 0.0018752406 0.006151261 0.014386525 0.022887249 0.026768137 0.004228741 0.01930418
0.012037162 -0.004608177 -0.0131002385 -0.021236539 -0.028742587 0.026050832 0.032996897 0.0017080978
0.009858991 0.0040546223 0.006256694 0.020624008 0.023491502 -0.01389724 -0.032442253 -0.02327319
0.032930072 -0.00626476 -0.028682023 0.013963994 -0.028313432 -0.025513005 -0.024571896 0.02456643
0.0026317053 0.023351058 -0.034151 -0.0065177735 0.017528223 0.01438343 -0.031341262 -0.012312306
0.00086967275 -0.0076351007 -0.03513145 0.0098871635 -0.0006288587 -0.01417196 0.01585799 -0.030000351
-0.026340779 -0.016900843 -0.009927891 0.02334884 0.0067298133 -0.0151774585 -0.02843154 0.033187922
-0.0011652783 0.016871037 0.001513243 -0.0020780303 0.023508824 -0.013744829 -0.033313077 -0.026622612
-0.033672616 -0.026372474 -0.029974759 -0.011433352 0.011682887 0.008851575 -0.017425042 0.0063048285
0.040500797 0.03529893 0.013960073 -0.01609222 0.006704874 -0.026792653 -0.014423529 -0.01032903
-0.033921964 -0.025254339 0.006805502 -0.0013699643 0.026098475 0.026608564 -0.028068624 0.026098598
-0.023037838 -0.003634058 -0.013817098 0.017655853 0.017345604 0.015881415 -0.034008708 0.02081474
-0.03902037 -0.02929511 -0.037917785 -0.008909248 0.037754145 0.03641923 -0.021681435 0.0013177587
-0.017834274 0.013204973 -0.0043754983 -0.023091331 -0.012758721 -0.015620794 0.017840477 0.02857503
-0.0046976544 0.0023560228 -0.02387745 0.021222588 0.0060816854 0.020758916 -0.03265475 0.011989111
-0.010943445 -0.014338231 -0.02612039 -0.031048506 -0.04000063 0.0012888671 0.00689422 -0.027570019
0.008138827 -0.015395818 0.011965161 0.005172243 0.040519886 0.031472504 0.003011202 0.015386296
0.03372534 -0.031630006 0.006307427 0.029805314 0.015065376 -0.002437789 0.034897204 -0.011224419
-0.025340047 -0.023957603 0.015953891 0.024527442 0.0034356976 -0.0129903555 0.0021177414 0.030982219
0.049195267 0.00013202662 -0.018798018 -0.0075526675 0.01485353 -0.01514726 -0.009301677 0.04676024
0.02429888 -0.008926726 -0.023066107 0.03482415 0.021391321 0.03463017 -0.034733634 -0.03478064
-0.02494609 -0.021357948 -0.023271056 0.018080615 -0.023832422 0.017675448 0.012501529 -0.017115286
-0.025286574 -0.028266624 0.039309405 0.06270258 0.0062813563 0.033778902 0.0026358499 0.011237873
-0.024486475 -0.013251736 0.008468941 0.012533155 0.053450808 -0.010543165 0.013419507 0.026379135
-0.02334454 0.028789088 -0.019073997 -0.013945073 0.024865095 0.0015443042 0.018454593 -0.02148292

linear.bias f4 [10]
00000000: 30fa f43c 65d5 babc 81ea 15bb ce9d f43c
00000010: 7131 02bd e077 0b3d 2023 ed3c e474 be3c
00000020: a6d8 cf3c 76aa c93c
0.029904455 -0.022806833 -0.002287537 0.029860403 -0.031785432 0.03404987 0.028947413 0.023249097
0.02537186 0.024617415
