Algs/Labs-Federated-Learning/saved_models/final/MNIST-iid_FedAvg_disguised_1.0_0.001_1_5_10_5_5_0.001_1.pth (torch, 32423 bytes, 2 tensors)

linear.weight f4 [10, 784]
0	0xbcedf57a	-0.029047716
1	0x3c8c030a	0.017091293
2	0xbcd80e16	-0.026373904
3	0x3c19f7c9	0.0093974555
4	0x3beb633e	0.0071834615
5	0xbcb5e38b	-0.022203228
6	0x3ccd3d1a	0.02505355
7	0x3c16e2da	0.009209359
8	0xbb5795ae	-0.0032895613
9	0xbc102116	-0.008796951
10	0x3ba3489c	0.004983021
11	0xb9bf0488	-0.00036433735
12	0x3cabb426	0.020959925
13	0x3cd37e44	0.025817044
14	0x3c6e6dac	0.014552515
15	0xbc98d20b	-0.018654844
16	0xbb9676d2	-0.004591801
17	0x3c9d3ec9	0.019194977
18	0xbd0d3039	-0.034469817
19	0x3b4c3590	0.0031159855
20	0xbcc36ca6	-0.023855519
21	0x3cf5df24	0.030013628
22	0xbc98cc73	-0.018652176
23	0x3cef7408	0.029230133
24	0xba814720	-0.0009863116
25	0x3b7ed7eb	0.0038886021
26	0xbbcc36d0	-0.00623212
27	0xbc8de6ae	-0.01732191
28	0x3bf56fa1	0.007490114
29	0xbca1de50	-0.019759327
30	0xbb85d1df	-0.0040838565
31	0x3d160e4a	0.03663472
32	0x3c475ea1	0.012168557
33	0xbc8c4c0a	-0.017126102
34	0xbcb22263	-0.021744912
35	0x3cd3432e	0.02578887
36	0x3c4b2dfc	0.0124011
37	0xbc238f74	-0.009982932
38	0xbb04bc52	-0.002025385
39	0x3cf09c12	0.029371295
40	0x3ccb9770	0.024852484
41	0x3cff0a1e	0.031132754
42	0x3cb44538	0.022005662
43	0x3af218c9	0.0018470521
44	0x3b563f2a	0.0032691457
45	0x3cb68b6d	0.02228328
46	0xbc97b4e1	-0.018518867
47	0x3c7a3b61	0.015272946
48	0xbad9b64c	-0.0016610115
49	0xbc912cf6	-0.017721634
50	0xbc88bd17	-0.016691728
51	0x3c400f58	0.011722408
52	0x3c71e344	0.014763657
53	0xbd0a9aa1	-0.033838872
54	0x3c1cc410	0.009568229
55	0xbd034dbc	-0.032056555
56	0xbb305c56	-0.0026910505
57	0x3aa6b40c	0.0012718453
58	0x3bba210f	0.0056802104
59	0x3c7045b8	0.01466506
60	0x3cc43399	0.023950385
61	0x3cdcf1be	0.02697074
62	0x3b9bd8e5	0.0047560805
63	0x3c93b000	0.01802826
64	0x3c3dd215	0.011585732
65	0xbb5bd9c8	-0.0033546556
66	0xbc534522	-0.0128949005
67	0xbcb2b0cb	-0.021812817
68	0xbcf176fa	-0.029475678
69	0x3ccf2d98	0.025290295
70	0x3d09aa1e	0.033609502
71	0x3a79eadd	0.00095335935
72	0x3c2f7f96	0.010711571
73	0x3b834009	0.0040054363
74	0x3bda147c	0.006655274
75	0x3cb25f69	0.02177401
76	0x3cc275c0	0.023737788
77	0xbc61139c	-0.013737585
78	0xbd03db17	-0.032191362
79	0xbcbe04a3	-0.02319557
80	0x3d0aa13d	0.033845175
81	0xbbb74cef	-0.005593888
82	0xbce05292	-0.027383123
83	0x3c60f49c	0.013730194
84	0xbceb5065	-0.028724859
85	0xbcd9c18f	-0.026581554
86	0xbcc8ca26	-0.024510454
87	0x3cc83cd7	0.024443073
88	0x3b49b20a	0.0030776286
89	0x3cccc0ea	0.024994332
90	0xbd0f9cb5	-0.035061557
91	0xbbbcfe68	-0.0057676323
92	0x3c97d5be	0.018534537
93	0x3c8299d4	0.015942492
94	0xbcf6e95f	-0.030140577
95	0xbc49da1e	-0.01232007
96	0x3a8d39c6	0.0010774664
97	0xbc0a7129	-0.008449831
98	0xbd1415cc	-0.0361536
99	0x3c2d4abb	0.010576899
100	0xba676d9c	-0.0008828284
101	0xbc6814b2	-0.01416509
102	0x3c816bcd	0.015798474
103	0xbcff1800	-0.031139374
104	0xbcd471dc	-0.025933199
105	0xbc8ea926	-0.01741464
106	0xbc2b665e	-0.010461418
107	0x3cbf3a3b	0.023343196
108	0x3c052a34	0.008127738
109	0xbc74fbc5	-0.014952605
110	0xbcf17c82	-0.029478315
111	0x3d090d51	0.033459965
112	0x3913b1f9	0.00014085312
113	0x3c906e31	0.017630668
114	0x3adbda5d	0.0016773451
115	0xbad2863e	-0.0016061736
116	0x3cc1d84a	0.023662705
117	0xbc5e5cd0	-0.013571933
118	0xbd0e01da	-0.034669735
119	0xbcdf43dc	-0.027254038
120	0xbd0d3e41	-0.034483198
121	0xbce03ea0	-0.027373612
122	0xbcf2e4be	-0.029650088
123	0xbc2e4474	-0.010636438
124	0x3c4015ca	0.011723945
125	0x3bfd9f22	0.0077399174
126	0xbc9bba84	-0.019009836
127	0x3ba029c2	0.0048877904
128	0x3d21b000	0.039474487
129	0x3d124c61	0.03571737
130	0x3c669695	0.0140739875
131	0xbc879423	-0.01655013
132	0x3bd06698	0.0063598864
133	0xbcd6b5e0	-0.026209772
134	0xbc7228f6	-0.014780274
135	0xbc381542	-0.011235537
136	0xbd06950f	-0.032856997
137	0xbccf65ee	-0.025317159
138	0x3be0af15	0.006856809
139	0xbb1aff0e	-0.002365056
140	0x3cd65b05	0.026166448
141	0x3ce1137e	0.027475115
142	0xbcdfd651	-0.027323874
143	0x3cdfd57c	0.027323477
144	0xbcb6a06c	-0.022293292
145	0xbba5bce5	-0.0050579184
146	0xbc527062	-0.012844177
147	0x3c893ebd	0.016753549
148	0x3c8b2534	0.016985513
149	0x3c84d8d0	0.016216666
150	0xbd07b88a	-0.033134975
151	0x3caa603f	0.020797847
152	0xbd213a94	-0.039362505
153	0xbcf77c9a	-0.030210782
154	0xbd16c256	-0.036806427
155	0xbc13d8ab	-0.009023826
156	0x3d16783c	0.03673576
157	0x3d0d4d58	0.03449759
158	0xbcb2680c	-0.021778129
159	0x3ab39602	0.0013701322
160	0xbc8efefe	-0.017455574
161	0x3c7e482a	0.015520135
162	0xbb95d3ff	-0.004572391
163	0xbcc2aaec	-0.023763143
164	0xbc483674	-0.012220014
165	0xbc7a1398	-0.015263461
166	0x3c9b64db	0.01896899
167	0x3cef289e	0.029194172
168	0xbb76fa90	-0.0037685968
169	0x3b27a084	0.0025577853
170	0xbcc51736	-0.02405892
171	0x3cb5c46c	0.022188388
172	0x3bcceb88	0.0062536635
173	0x3cb3fe51	0.021971853
174	0xbd063e07	-0.032773998
175	0x3c3070de	0.010769097
176	0xbc32609d	-0.010887292
177	0xbc785d5a	-0.0151589755
178	0xbcd42180	-0.02589488
179	0xbd01e630	-0.031713665
180	0xbd27d700	-0.040976524
181	0x3ae6b5fe	0.0017601845
182	0x3be5616a	0.007000138
183	0xbce34c80	-0.027746439
184	0x3c04699e	0.008081822
185	0xbc83c467	-0.016084863
186	0x3c442dc8	0.011973806
187	0x3bacbb0d	0.0052713216
188	0x3d235d3f	0.03988385
189	0x3d041d14	0.032254294
190	0x3b42af30	0.002970647
191	0x3c7b8ff4	0.015354145
192	0x3d11ae9b	0.035566907
193	0xbd008539	-0.03137705
194	0x3b954e9e	0.004556491
195	0x3cfc9c0f	0.030836133
196	0x3c719456	0.014744839
197	0xbb2bf5a2	-0.0026238938
198	0x3d11d166	0.03560009
199	0xbc2d12f5	-0.010563602
200	0xbcd2284c	-0.02565398
201	0xbcc48c64	-0.023992725
202	0x3c873910	0.016506702
203	0x3cc8f6aa	0.024531681
204	0x3b67a326	0.0035345047
205	0xbc4a8dc3	-0.0123629
206	0x3b655824	0.0034995163
207	0x3cfc86b9	0.03082596
208	0x3d488bf1	0.048961584
209	0x3a757cf0	0.00093646254
210	0xbc99bbf2	-0.018766377
211	0xbbe35a76	-0.006938274
212	0x3c6dbcc8	0.014510341
213	0xbc80b9f7	-0.015713675
214	0xbc2aa967	-0.010416365
215	0x3d3d7ddf	0.04626262
216	0x3cca4eab	0.024695715
217	0xbc12554c	-0.008931469
218	0xbcc65fa9	-0.024215536
219	0x3d0d2144	0.034455553
220	0x3cc29392	0.023752008
221	0x3d10d120	0.035355687
222	0xbd1302ee	-0.035891466
223	0xbd151094	-0.036392763
224	0xbcc69894	-0.024242677
225	0xbcb39c9f	-0.021925269
226	0xbcc592e6	-0.024117898
227	0x3c952473	0.018205857
228	0xbcd1a126	-0.025589537
229	0x3c8f01a3	0.017456835
230	0x3c568e33	0.013095426
231	0xbc838ace	-0.016057398
232	0xbcd6aec6	-0.026206385
233	0xbce9443c	-0.02847492
234	0x3d27c78a	0.04096178
235	0x3d81b624	0.06333569
236	0x3bd047ae	0.006356201
237	0x3d0a4f42	0.033766992
238	0x3b079f9e	0.0020694504
239	0x3c3ef010	0.011653915
240	0xbcc8ac22	-0.024496142
241	0xbc447bfc	-0.011992451
242	0x3c085088	0.008319981
243	0x3c504260	0.0127111375
244	0x3d5b8431	0.053592864
245	0xbc23c104	-0.009994749
246	0x3c569e6a	0.013099292
247	0x3cd7bba8	0.026334599
248	0xbcc54dd5	-0.024084965
249	0x3ce788a6	0.028263401
250	0xbc940277	-0.018067582
251	0xbc5fc87d	-0.01365864
252	0x3cc44aa2	0.023961369
253	0x3aae2df6	0.0013288844
254	0x3c97f7ba	0.018550742
255	0xbcb3a4d2	-0.021929178

linear.bias f4 [10]
0	0x3cf35904	0.029705532
1	0xbccbc7fa	-0.02487563
2	0xbb7a9997	-0.003823852
3	0x3cf9864e	0.03045955
4	0xbd04d115	-0.03242596
5	0x3d0ba029	0.034088288
6	0x3cf4e19e	0.029892739
7	0x3cbf9999	0.02338867
8	0x3ccdb688	0.025111452
9	0x3cccc8bc	0.024998061
