Algs/Labs-Federated-Learning/saved_models/final/MNIST-iid_FedAvg_FL_5_10_5_5_0.001.pth (torch, 32423 bytes, 2 tensors)

linear.weight f4 [10, 784]
00000000: 6aec dfbc 9024 8a3c 2560 ddbc 64a9 183c
00000010: d8de 0e3c fe88 bfbc 50e6 cd3c 9c76 1c3c
00000020: a011 4fbb 0413 0cbc 69e9 e73b a021 88ba
00000030: 8a75 a43c 5259 d23c b036 6f3c fa13 92bc
00000040: 98b3 89bb de50 953c a439 09bd 80eb 7d3b
00000050: ec2f b7bc 7e6f fa3c fe8d 90bc 0227 ee3c
00000060: 00f0 34b9 3021 8d3b c091 cdbb 1798 8dbc
00000070: 3862 ed3b 0419 a5bc 8084 4ebb b1de 0e3d
00000080: 6882 633c fa8d 97bc 8552 b3bc 7c14 d53c
00000090: d808 3f3c 2bc7 36bc e152 cfba f64a e73c
000000a0: 366f c23c ee8b fa3c 69da b53c 40bb 1d3a
000000b0: a04e 453b 50ea be3c 4e92 97bc 802e 703c
000000c0: 6072 d4ba fcc8 9ebc d361 85bc 60f9 4e3c
000000d0: e48c 6a3c afec 08bd 3c91 0c3c fa17 03bd
000000e0: d0f8 32bb a0ca f53a 8190 c93b 74b5 6b3c
000000f0: 0b7e bb3c da48 db3c 4091 8a3b cc23 9e3c
00000100: 8437 453c 3000 97bb 60a2 56bc 40f8 adbc
00000110: 9375 ebbc 8c68 d53c c127 073d 41e2 df3a
00000120: b733 213c 63ee 633b a22a b13b 9162 a63c
00000130: 3e71 c03c 3cb1 63bc 2be2 04bd 6ba7 bebc
00000140: afe1 063d 9d48 cdbb 8ef6 eabc 3cc9 643c
00000150: 93f1 e7bc a500 d1bc 004b c9bc 8a3f c93c
00000160: b178 2c3b b84a bf3c ebe1 0bbd 0993 d5bb
00000170: 5897 8f3c 79a8 6b3c b25f 00bd 8fb9 49bc
00000180: c0fa 633a dc2f fabb ffe5 0fbd c4fd 213c
00000190: d8cd 47ba ad10 76bc 11f2 753c 39d2 f8bc
000001a0: 9fc8 d7bc a373 8abc 98a8 22bc 1046 bf3c
000001b0: c085 dc3b e0aa 78bc 45e9 e8bc 0ff0 073d
000001c0: 40bc 98ba 2035 8a3c 0058 c63a 902f 08bb
000001d0: 9095 c03c fc31 61bc 4a73 08bd aa17 dabc
000001e0: 4cec 09bd e966 dbbc 6a17 03bd b39d 55bc
000001f0: c828 523c 240b 433c 286a 6ebc 4723 0d3c
00000200: 7825 2d3d 609f 1c3d f007 8e3c ef94 6abc
00000210: 0221 0e3c de07 d4bc 63aa 61bc 183b 29bc
00000220: c2f1 0abd 2fe2 cebc b000 df3b 6090 b3ba
00000230: 78cc d53c 30fa d93c 28f0 e5bc b8cc d53c
00000240: d8b9 bcbc 6029 6ebb 1861 62bc 02a3 903c
00000250: 5e18 8e3c c2e9 773c 2e06 14bd e395 a83c
00000260: 1d5a 16bd 95fd e8bc 92b4 14bd e861 54bb
00000270: 2837 3b3d 3588 303d 9591 8cbc b99e 7b3b
00000280: c1e9 87bc 233b 7c3c b9b5 06bb ddeb b7bc
00000290: f209 51bc 58ee 7fbc 3026 923c 2e16 ea3c
000002a0: c8ee 99bb 8067 1a3b a59a c3bc feda ad3c
000002b0: e048 c73b 9b0e aa3c fcc0 05bd f96d 443c
000002c0: 1376 33bc ba41 57bc 8949 c7bc b40f e5bc
000002d0: ecf4 16bd 84a4 6e3b e019 e63b cfe8 debc
000002e0: 9c63 303c b048 2cbc 2026 943c 6c6a 033c
000002f0: 586e 293d 5fe3 073d db92 b53b db55 853c
00000300: 9523 0a3d 778e 01bd 88ae ce3b 462a f43c
00000310: c4d4 763c 50c3 1fbb 5ff0 0e3d a1e6 37bc
00000320: ee95 cfbc b842 c4bc 9845 7f3c bb32 c63c
00000330: 925f 963b d163 2cbc caf7 af3b 6c12 fd3c
00000340: 25e3 483d 91fb faba 2b07 c2bc ff76 67bc
00000350: af0d 3a3c a9de 6ebc f733 e2bb 6047 413d
00000360: 5aeb c23c da26 25bc 215b b4bc 8784 163d
00000370: 7996 c13c 5dd8 0d3d db44 0ebd 2576 0ebd
00000380: be5b ccbc dcf6 aebc f0a2 bebc cc1d 943c
00000390: 363c c3bc 1acc 903c e72c 423c 7fb7 83bc
000003a0: 573f b8bc e535 dfbc 8cf0 213d 1977 7f3d
000003b0: 5947 b33b 2d0c f73c 4d4f a3ba 803d c03b
000003c0: 499b e2bc f798 52bc cb89 e03b 7801 253c
000003d0: 3c98 553d ba0f 1abc f182 813c cd74 f83c
000003e0: 8aee a3bc a7d4 f23c 1341 9cbc dc79 64bc
000003f0: e0b1 cb3c 406a ca3a 162e 973c f3fc afbc
-0.02733441 0.016863137 -0.027023384 0.00931773 0.008720122 -0.023380753 0.025134236 0.009549763
-0.0031596199 -0.008549456 0.007077385 -0.0010385998 0.020075578 0.025677357 0.014600441 -0.017831791
-0.0042023174 0.018227037 -0.033502236 0.0038745105 -0.022361718 0.030570742 -0.017645832 0.029071335
-0.00017255545 0.004306935 -0.0062734783 -0.017284436 0.0072443746 -0.02015353 -0.0031512082 0.034880344
0.013886072 -0.018500317 -0.021889934 0.026010744 0.011659823 -0.011155884 -0.0015817547 0.028233986
0.02373467 0.030584302 0.022198873 0.0006016977 0.0030106679 0.023305088 -0.01850238 0.014659524
-0.0016208403 -0.019382946 -0.016281998 0.012632698 0.0143158175 -0.033428844 0.008579548 -0.032005288
-0.0027308948 0.0018752404 0.0061512594 0.0143865235 0.02288725 0.026768137 0.004228741 0.019304179
0.012037162 -0.0046081766 -0.013100237 -0.021236539 -0.028742587 0.026050828 0.032996897 0.0017080979
0.00983899 0.003477954 0.0054066936 0.020310672 0.023491498 -0.013897236 -0.032442253 -0.02327319
0.032930072 -0.0062647597 -0.02868202 0.013963994 -0.028313434 -0.025513003 -0.024571896 0.02456643
0.0026317055 0.023351058 -0.034151 -0.006517772 0.017528221 0.014383429 -0.031341262 -0.012312307
0.00086967275 -0.0076351 -0.03513145 0.009887163 -0.00076219207 -0.015018624 0.015011326 -0.03037368
-0.02634078 -0.016900843 -0.009927891 0.023348838 0.0067298114 -0.0151774585 -0.028431544 0.033187922
-0.0011652783 0.016871035 0.0015132427 -0.0020780303 0.023508817 -0.013744827 -0.033313073 -0.026622612
-0.033672616 -0.02678247 -0.03200475 -0.013038087 0.012827106 0.011904512 -0.014551677 0.008614368
0.04227206 0.03823793 0.01733777 -0.014317735 0.008674862 -0.025882658 -0.0137735335 -0.01032903
-0.033921964 -0.025254337 0.006805502 -0.0013699643 0.026098475 0.026608557 -0.028068617 0.026098594
-0.023037836 -0.003634058 -0.013817094 0.017655853 0.017345604 0.015131416 -0.036138706 0.020579284
-0.036707032 -0.02844123 -0.036305018 -0.003240699 0.045706898 0.043098647 -0.017159263 0.0038394167
-0.016590955 0.015394959 -0.0020555092 -0.022451336 -0.012758719 -0.01562079 0.017840475 0.02857503
-0.0046976544 0.0023560226 -0.023877451 0.021222588 0.0060816854 0.020758918 -0.032654747 0.01198911
-0.010953444 -0.013138229 -0.024327056 -0.02796159 -0.03685467 0.0036413977 0.0070221275 -0.027210621
0.010765936 -0.010515377 0.018084586 0.008020978 0.041364998 0.033175822 0.005541188 0.01627629
0.03372534 -0.031630006 0.006307427 0.029805314 0.015065376 -0.002437789 0.034897204 -0.01122442
-0.025340047 -0.023957595 0.015580557 0.024194112 0.0045890296 -0.010521845 0.005370115 0.030892573
0.049044747 -0.0019148459 -0.023685059 -0.014127492 0.0113558015 -0.0145794535 -0.0069031673 0.04718721
0.023793865 -0.010080064 -0.02201611 0.03674748 0.023631321 0.03463017 -0.034733634 -0.03478064
-0.02494609 -0.021357946 -0.023271054 0.018080615 -0.023832422 0.017675448 0.011851526 -0.016078709
-0.02249114 -0.027247379 0.039536044 0.06236944 0.005471152 0.030157173 -0.0012459547 0.0058667064
-0.027661936 -0.0128538525 0.0068523637 0.010071151 0.052147135 -0.009403164 0.015809508 0.030329132
-0.020011205 0.029642416 -0.019073999 -0.013945069 0.02486509 0.0015443042 0.018454593 -0.02148292

linear.bias f4 [10]
00000000: 9de9 f43c 6be8 babc ad05 17bb 60b8 f43c
00000010: 602e 02bd ee52 0b3d a7f6 ec3c b367 be3c
00000020: 3797 d03c b695 c93c
0.029896552 -0.022815904 -0.0023044155 0.029873073 -0.031782508 0.034014635 0.028926207 0.023242807
0.02546273 0.02460752
