Algs/FedGen/models/Mnist-alpha0.1-ratio0.5/server.pt (torch, 113839 bytes, 16 tensors)

weight f4 [6, 1, 3, 3]
00000000: 8957 063d c0f3 3b3e c582 95be c214 77be
00000010: d8a5 0ebe 8f52 a23d ccfe 473d 48af a23e
00000020: c835 0f3c 3b7f dd3d 8394 d3bd 739f 8ebd
00000030: 1fb7 90be faa4 4fbe 8568 e9bd d061 8c3d
00000040: f4d1 353e dd16 733e 5429 7cbe e86e 27be
00000050: 6574 0b3e 1749 6e3e 40cf b7bd f670 823e
00000060: f3e1 acbd 2657 103d 1d97 9a3e ef9c 98be
00000070: 0529 57be 2400 a7bd 81d0 05be b80f 8d3e
00000080: af17 67be aa1c 1dbe 878b 7abe 3137 a3be
00000090: 31eb 87be f71a 9c3e fe19 063e 7bbb 243e
000000a0: ca43 bf3d 3e64 19be 7c06 123d 1e1d 8ebe
000000b0: d0ed 6fbe f7bc 52be 5600 4c3e 564e 513e
000000c0: af73 35be e499 95bc 9d21 543e 7481 a13e
000000d0: 5dad f73d b1b1 9e3c
0.032798324 0.18354702 -0.29201332 -0.24129012 -0.13930452 0.07925903 0.048826978 0.31774354
0.00874085 0.10815283 -0.10331061 -0.06964006 -0.2826471 -0.20277777 -0.11396889 0.06854594
0.17755872 0.2373919 -0.2462514 -0.16350901 0.1361862 0.23270069 -0.08975077 0.25476807
-0.08441534 0.03523936 0.30193415 -0.2980723 -0.21011741 -0.08154324 -0.13067819 0.27551055
-0.22567628 -0.15342966 -0.24467288 -0.31878045 -0.26546624 0.30489323 0.13095853 0.16087143
0.093391016 -0.14979646 0.035650715 -0.2775659 -0.23430562 -0.20579897 0.19922003 0.20440039
-0.17719911 -0.018261857 0.20715947 0.31544077 0.12093613 0.01937184

bias f4 [6]
00000000: ffdb 643e 49fa 48be 0c6c 7e3d 9e51 84be
00000010: c292 6cbe c453 30be
0.22349547 -0.19626726 0.06211476 -0.2584352 -0.23102859 -0.17219454

weight f4 [6]
00000000: e607 843f ceaa 7d3f 6651 853f beda 6f3f
00000010: 0d3f 7c3f 7fc4 803f
1.031491 0.9908875 1.0415466 0.9369315 0.9853371 1.0059966

bias f4 [6]
00000000: 5382 d9bc 07fc 11bd bdc6 29bb df2c b7bd
00000010: f449 23bd 10e6 dbbc
-0.026551401 -0.035640743 -0.002590581 -0.08944105 -0.03986545 -0.0268431

running_mean f4 [6]
00000000: 0000 0000 0000 0000 0000 0000 0000 0000
00000010: 0000 0000 0000 0000
0.0 0.0 0.0 0.0 0.0 0.0

running_var f4 [6]
00000000: 0000 803f 0000 803f 0000 803f 0000 803f
00000010: 0000 803f 0000 803f
1.0 1.0 1.0 1.0 1.0 1.0

weight f4 [16, 6, 3, 3]
00000000: 9552 533d 5664 2d3d 424e cdbd a1d9 d83c
00000010: fb66 783d 5b5f 02bd 02ee 1dbd f0f8 8c37
00000020: fd96 903d 72bb e33d 4c55 01be d8e8 6dbd
00000030: bec4 0b3d 5aa6 c63d 6522 fc3d 57d8 af3d
00000040: 849e 143b 45b5 f4bd 653d 3a3c 9f3b cdbd
00000050: 58ea 23be c1fb ff3d bdf1 a33d e44a 1dbe
00000060: 637d a9bb c631 80bd ac78 0cbd 321d bdbd
00000070: 2d51 de3c 0f03 a9bd 5c20 d53c 8d65 523d
00000080: 6b6c d43d 97d3 3f3d 9380 0bbe 8f47 9bbd
00000090: f927 8d3d a8a7 263d 2da5 b6bd f526 9bbd
000000a0: 541c f33d b22e c63d b144 67bd dc35 f4bc
000000b0: 7144 0ebe eb8d 86bb 23db d4bd 68bd 08be
000000c0: 3439 13bc 127a 5e39 13a3 c3bd f90b 603d
000000d0: c18d 02be 8479 c03d f2bf ec3d b382 08be
000000e0: b639 2fbd ab69 753c b895 593c adf5 833c
000000f0: 7af3 8d3d c42e e33b d8a6 bcbd 395a 853d
00000100: 89d9 0cbe 2b9a a8bd e695 08bd a3e4 61bd
00000110: 646c 4abd f387 d5bd e346 b4bc 0b38 ad3c
00000120: a6fb 9bbd 3923 5ebc d6f3 d33d 51ce 08bd
00000130: d887 c3bc 5d5f 5ebc 1e42 963c 092a 893d
00000140: d72e c93d 6447 b93d 8d12 123e cc3e 6ebc
00000150: 7848 e8bd d834 31bd d3c0 cb3d 3a8d 383c
00000160: b018 2cbd dc30 bdbd b928 d9bd a7b4 c4bd
00000170: f2bf b2bc d505 c33d 08b3 a73d 5b67 0fbe
00000180: 6cb9 bd3d b8b9 ebbd 8aaf b5bc 831b c1bc
00000190: c7d3 b8bc 87fe 14bd bbe5 f9bd 5eb6 1dbe
000001a0: c412 e7bc dc9b 05bc b755 a9bd 309e cc3c
000001b0: 65ea 04be 889c 10bc cfb5 f93d 106f 95bd
000001c0: c3ed 053e bf95 643d be2a 0ebe 2aba 9f3d
000001d0: c228 07bd 5088 7bbd caf9 f43d 9bf6 c7bd
000001e0: 63fb 933c 65a2 8dbc 90c5 c13d ff8d 163d
000001f0: 70bd 333d c3f8 fc3c 938a 32bd d674 28bd
00000200: dbff dcbd 7707 3e3d 9e5a df3d 8837 c13d
00000210: 01da fcbd d29f a6bc 895e 02be d7c3 75bd
00000220: 1014 6fbd db80 8e3d 66b9 80bd 8638 993c
00000230: 9561 e83c b9ee af3d 86ef c6bd 196b babd
00000240: 52a4 82bd 27d4 c53d 301c 33bd f909 c03d
00000250: bfcc b83c da75 12b9 a280 7c3a 252c bdbc
00000260: 3ad3 0d3d 1b1b 1dbd 8dae a2bc 5c27 413c
00000270: bb78 11be 7736 b5bd bf89 da3d 091e 1ebe
00000280: da6f 9abc e63b c83d df9e 493d 45c3 683a
00000290: 32bd f8bd 090d 993d 65e7 c3bd 0f99 2ebd
000002a0: 9c88 15bd 1f6e 27bc bb26 863c 1edd e93d
000002b0: a550 8e3c e224 e63d 3b49 b53d 2639 b9bd
000002c0: 96f5 773d f853 bcbd 0045 62bd c7ce 3e3d
000002d0: ebb8 053d 20d3 cd3d aa44 85bd f698 75bb
000002e0: c71b 573d 7baa 26be 7136 b73d c8cb 08be
000002f0: 2de0 ea3b 6211 56ba ece2 3ebd bb1f 093d
00000300: 7c65 093e 642e 29bc 1352 82bd f746 12bd
00000310: ba13 f0bd a1c4 713d d983 4bbd 3142 a5bd
00000320: 3f99 88bd 6457 8a3d 6255 403d 8430 b53d
00000330: ac5c 613d def2 26bd e988 30bd 65b5 8f3c
00000340: 1b86 da3d f326 bb3c 753b 9ebd 5f39 a2bd
00000350: fe38 2abe 4872 c23c fb23 c9bd e6fe 12be
00000360: d9fc ef3d e43c d6bd d653 863a 11e1 243d
00000370: 2212 413c a5fd cabd a533 f5bd 770a d93d
00000380: 45f3 213d 90b6 b23d d3d0 74bd 59b2 563d
00000390: 2089 4abd 2dbd 7bbc 4944 cbbd 0c31 fb3c
000003a0: 3aa1 cf3c 0b73 5dba b93d 3cbd d32a f1bd
000003b0: 4942 b53d c1be 00be e777 683d e09d 57bd
000003c0: bb67 b4bd 4093 a13a 5efa acbd b8bb 863c
000003d0: 14b7 a63c 9a1c b2bd 9960 e53b d11f 423d
000003e0: 5a09 823d c048 0dbd a9f2 fcbd a107 91bc
000003f0: 0af2 1e3d 71ec 4ebd 7813 253d dba4 b73d
0.05159243 0.042332016 -0.10024692 0.026470961 0.060645085 -0.03182922 -0.03855706 1.6805221e-05
0.07060049 0.11119737 -0.12630194 -0.058083385 0.034123175 0.09699698 0.12311248 0.085861854
0.002267749 -0.11948637 0.011367177 -0.100211374 -0.16007364 0.1249919 0.08005092 -0.153606
-0.005172418 -0.062594935 -0.03429477 -0.09234084 0.027138317 -0.082525365 0.026016407 0.051366378
0.103722416 0.046832647 -0.13623266 -0.07582008 0.0689239 0.040687233 -0.089182235 -0.0757579
0.118706375 0.09676875 -0.056461994 -0.029810838 -0.13893296 -0.0041062734 -0.103933595 -0.13353503
-0.008985806 0.00021217045 -0.09552588 0.054698918 -0.12749387 0.09398177 0.11560048 -0.13331108
-0.042779647 0.0149788065 0.013280325 0.016108358 0.06931205 0.006933065 -0.092115104 0.06511349
-0.13754858 -0.0823253 -0.03334608 -0.055149686 -0.049419776 -0.10426321 -0.022006458 0.021144887
-0.076163575 -0.013558202 0.103492424 -0.033399884 -0.023868486 -0.013572541 0.018342074 0.06697471
0.09823387 0.0904682 0.14264889 -0.014541339 -0.11341947 -0.043263286 0.09948888 0.01126414
-0.04201573 -0.09237835 -0.1060347 -0.09604769 -0.021820042 0.09522597 0.081884444 -0.1400427
0.09263882 -0.115100324 -0.02217843 -0.023572689 -0.02256192 -0.03637555 -0.12202021 -0.15401599
-0.02820719 -0.008154836 -0.08268302 0.024977773 -0.1298004 -0.008826382 0.1219288 -0.07296574
0.1307898 0.05580687 -0.13883492 0.0779918 -0.032997854 -0.061409295 0.11961706 -0.09763833
0.018064206 -0.01728935 0.0946151 0.03675651 0.043881834 0.030880338 -0.043589186 -0.04112705
-0.10790988 0.046393838 0.10905956 0.0943442 -0.123462684 -0.02033988 -0.12731375 -0.06000122
-0.058368742 0.06958171 -0.06285362 0.01870371 0.028366843 0.085904546 -0.09713654 -0.091024585
-0.06378998 0.096596055 -0.043728054 0.09376902 0.022558568 -0.00013967548 0.0009632205 -0.023092339
0.03462527 -0.038355928 -0.019858623 0.011789169 -0.14206211 -0.08848279 0.10670804 -0.15441145
-0.018852163 0.0977705 0.049223777 0.0008879195 -0.12145461 0.074731894 -0.095656194 -0.042626437
-0.036507234 -0.010219126 0.01637589 0.11419128 0.017372439 0.112375036 0.08851858 -0.09044103
0.060536943 -0.09195703 -0.055241585 0.046583917 0.032647055 0.100500345 -0.06507237 -0.0037475205
0.052516725 -0.1627597 0.08945931 -0.13358986 0.007167837 -0.00081660424 -0.04660313 0.033477526
0.1341762 -0.010326002 -0.06363311 -0.03571221 -0.117225125 0.05902541 -0.049686287 -0.08069266
-0.066698544 0.0675495 0.046956427 0.08847144 0.05502002 -0.04075896 -0.043099318 0.01754255
0.1067011 0.02284572 -0.07726184 -0.07921099 -0.16623303 0.023736134 -0.09821316 -0.14355049
0.11718149 -0.10460833 0.0010248374 0.040253703 0.011784108 -0.0991166 -0.11972741 0.10597699
0.03953864 0.08726227 -0.059769463 0.05241618 -0.04944718 -0.015364927 -0.09925134 0.030663036
0.025345434 -0.00084476237 -0.0459573 -0.11775746 0.088505335 -0.12572767 0.056754973 -0.052640796
-0.088088475 0.0012327209 -0.08446191 0.016446933 0.02035097 -0.086968616 0.0070000407 0.047393624
0.0634944 -0.034493208 -0.12350971 -0.017703833 0.038805045 -0.050518457 0.04030177 0.089669906

bias f4 [16]
00000000: 8744 b23d 0724 fcbd 3494 533d 8e9e d9bd
00000010: 4e0f d33d bce7 2e3d 45c9 093e 8f65 09be
00000020: d125 06be 906d bc3d 206f f73d a0c0 aa3d
00000030: 5349 b93d 2bbd eabd a0b9 c93d d490 03be
0.08704477 -0.12311559 0.05165501 -0.10625945 0.103056535 0.042701468 0.13455684 -0.13417648
-0.13100363 0.09200585 0.12081742 0.083375216 0.090471886 -0.11461862 0.09849858 -0.12848216

weight f4 [16]
00000000: 3074 603f 8454 623f d2c6 613f 03fa 613f
00000010: edf2 613f 43c5 4b3f 4a68 5e3f aeb2 5f3f
00000020: bf82 613f 572d 593f 4804 5f3f f1d3 613f
00000030: cac0 603f 87fe 5d3f 4906 5c3f 3b18 5e3f
0.8767729 0.8841021 0.88194 0.8827211 0.882613 0.7959787 0.8687788 0.8738202
0.8809013 0.8483481 0.8711591 0.8821402 0.8779417 0.867165 0.8594709 0.8675572

bias f4 [16]
00000000: 63bc 4dbe ddba 47be 76bf 33be 75fe 3cbe
00000010: 1441 35be 7d50 22be 6c7a 23be ed2d 3ebe
00000020: 5df8 37be a400 21be 623f 38be 7df1 2dbe
00000030: 0422 2dbe 5d4a 51be 2fa6 45be 5af8 4cbe
-0.20091395 -0.19504876 -0.17553505 -0.18456443 -0.17700607 -0.15851016 -0.15964669 -0.18572207
-0.17965837 -0.157229 -0.17992929 -0.16986652 -0.16907507 -0.20438524 -0.19301675 -0.20016614

running_mean f4 [16]
00000000: 0000 0000 0000 0000 0000 0000 0000 0000
00000010: 0000 0000 0000 0000 0000 0000 0000 0000
00000020: 0000 0000 0000 0000 0000 0000 0000 0000
00000030: 0000 0000 0000 0000 0000 0000 0000 0000
0.0 0.0 0.0 0.0 0.0 0.0 0.0 0.0
0.0 0.0 0.0 0.0 0.0 0.0 0.0 0.0

running_var f4 [16]
00000000: 0000 803f 0000 803f 0000 803f 0000 803f
00000010: 0000 803f 0000 803f 0000 803f 0000 803f
00000020: 0000 803f 0000 803f 0000 803f 0000 803f
00000030: 0000 803f 0000 803f 0000 803f 0000 803f
1.0 1.0 1.0 1.0 1.0 1.0 1.0 1.0
1.0 1.0 1.0 1.0 1.0 1.0 1.0 1.0

weight f4 [32, 784]
00000000: 197d 193c 732d b7bc 593c 5abc b330 ec3b
00000010: ee6b 58bc b0c0 9fbb d2a3 06bd f1db 07bd
00000020: 66cf 733c 9d1c 16bc ff87 8ebc 5610 4bbc
00000030: d7c7 f0bc 8429 dcbc ee10 b33c 2dd8 823c
00000040: 1a13 9d3b fb73 88bc 6e20 9b3c d49b f93b
00000050: 1bc4 bebc d4da 043c 2b0e 033d 4e39 14bd
00000060: aeb6 17bd 000f 0c3c 9708 083d 5e33 b9bc
00000070: cc67 0c3c 323b fe3c 40a4 a93b f75f 983b
00000080: 8892 123d 5e24 dd3c f0f8 b1bc 19ec 653b
00000090: 9c8a ad3c 8032 213d adf9 0cbd acd9 ac3c
000000a0: aa8b c4bb 32f5 0cbd 42e9 083c ad41 aabc
000000b0: 967b c53b 134e 9bbc e89b c9bc c06b 5dbb
000000c0: e990 3fbc e96c a03c 933d e33b c99d 003d
000000d0: c5ad 2f3c 4175 0dbc b3cb e03c e6c9 ba3b
000000e0: c085 153c 324a 923a 93f4 af3b 1b1e 24bc
000000f0: 16e9 a3bb d266 ddbc 5f68 893b 4033 dabc
00000100: 8531 1ebb 4aac 513c 6862 bebc 93f2 e7bc
00000110: 5433 0ebc 2061 10bc e679 0a3c 3526 813a
00000120: f571 713c c82a c1bc e200 09bc 54c0 bc3c
00000130: 67a7 003d 58c5 5239 1ec1 c9bc d01f f13b
00000140: 9927 dd3c d801 fdbc eab7 98bc da34 a53c
00000150: 3b89 5d39 5b9a 0abd 4028 99bb c870 8a3c
00000160: 5552 52bc e76d e73c 6f3c 0e3d e937 f83b
00000170: 7234 0c3b 02c4 fabb 7c67 873a 810c 033c
00000180: 447d bdbc 5837 1ebb 1c7d dabc 958a d33c
00000190: eb32 9abc 8bb7 173d aff5 b4bb c36c 85bc
000001a0: 05e0 ac3c 418d 293c c962 003d b9f3 bd3c
000001b0: 4572 36bd ff49 8d3c 7df5 d2bb a79f 6abc
000001c0: 3e86 f03c 069a 153d 02f1 b9bc 93c2 a4bb
000001d0: 708a 0c3d ea8d 6d3c 16ce 063d d12a e9bb
000001e0: 7631 c1bc 6cf6 073d 35f0 133c 0230 2b3d
000001f0: 3bf0 dbbc 5721 a3bc a678 7d3a 09e1 27bd
00000200: f6a7 893b e701 f23c 1ca2 103c 0985 00bc
00000210: 0291 9e3c 05c3 8bbc d77b 273d adc3 ffbc
00000220: d9ac 0abd fd54 9bbb 3314 fc3c 451b b33b
00000230: 4ed4 973c 4d82 babc 9d84 b73c 6d50 d13a
00000240: 0ea5 2f3c e90b df3c a952 8f3c 3808 84ba
00000250: f507 8839 07d7 a2bc 1ef8 2bbc c63d d23c
00000260: a8f3 41bc adfa c93c 121a 55bc 674c 07bc
00000270: b98e 413a 4a43 05bd d40e 25bb cc79 c4bb
00000280: 9048 81bb 75b5 d4bb d074 e93c bfab 033d
00000290: cf57 c7bc 8271 983c a126 6fbc 3c82 e9bc
000002a0: 7593 403c 48fa 303b 3fdf 84bc f9b6 0ebd
000002b0: 7c61 45bc 8374 bb3c f23e 0ebd 9639 0abd
000002c0: cae0 c23b 098a e4bc e0b8 fcbc b53f 0fba
000002d0: 3117 b1bb 0fd8 05bd e5b7 bdbc 08d6 653b
000002e0: 9281 08bd 0b9b ec3a 025a 82bc 1f45 ccbc
000002f0: 9827 7e3c 2a36 d9bc 6414 d7bc 40a8 ad3c
00000300: 1ebc 833c 4fb0 2b3d ddbc 1bbc 2239 88bc
00000310: bbdb 42bb 9cc7 10bb 7861 cd3c bb77 1abd
00000320: ee63 91bb 63ce 623c 89ad b4bc 8c9d 9ebc
00000330: adf4 a03c 214f dcbc 9ace 5e3c 01a3 bfbc
00000340: 0c01 a53c 6bca ddbc 6d9d aa3c d1fc dbbc
00000350: 3734 fcbc 6622 a8bb 911b 183d 079c e3bc
00000360: 65b9 30bc 1d54 003d bc68 9ab8 3c62 123c
00000370: 16d4 f3bc 1277 3ebc f887 45bc b373 013d
00000380: 283e 5d3c dc57 9dbc 25f2 293c 6854 01bb
00000390: b346 8bbc f25d 31bc a8f1 6abc 66cc e13c
000003a0: ef4c e7bc 457f cebc 9955 5ebb 0410 873a
000003b0: e12a 4a3c a914 8f3b 7470 19bc 9d1d 9bbc
000003c0: c060 2837 ba21 83bc d3d0 e13c 9814 04bd
000003d0: 5b93 9cbc dd77 eebc 9910 d3bb 0356 e93c
000003e0: be85 073d c8af f5bc b802 dcba b2ad aa3c
000003f0: 38b3 863c 837a fa3c becf 183c fbc0 0dbc
0.0093682045 -0.022360539 -0.013320052 0.007207954 -0.013209326 -0.004875265 -0.032871075 -0.033168737
0.014880991 -0.009162095 -0.017398832 -0.0123940315 -0.029392166 -0.026875265 0.021858659 0.015972221
0.004793537 -0.016656866 0.018936362 0.007617453 -0.02328687 0.008108813 0.031995934 -0.036187463
-0.03703945 0.008548498 0.033211317 -0.022607502 0.008569669 0.031034086 0.005177051 0.004650112
0.035784274 0.02699488 -0.021725148 0.0035083352 0.021184258 0.0393548 -0.034417797 0.021099888
-0.0059980946 -0.034413524 0.008356394 -0.02078327 0.0060266955 -0.018958127 -0.024610475 -0.0033786148
-0.011692264 0.019583182 0.0069348305 0.031400476 0.010722582 -0.008633913 0.027440881 0.0057003377
0.009126127 0.0011161028 0.0053697317 -0.010016943 -0.0050021512 -0.027026568 0.00419335 -0.026635766
-0.0024138403 0.012797425 -0.023240283 -0.02831391 -0.00867923 -0.008812219 0.008451914 0.0009853306
0.014736642 -0.02357997 -0.008362027 0.023040928 0.031409647 0.00020100677 -0.024628218 0.0073585287
0.02699642 -0.030884668 -0.018642385 0.020166803 0.00021127325 -0.03383861 -0.0046739876 0.016899481
-0.012837012 0.028250648 0.034725603 0.0075750244 0.0021393565 -0.0076527605 0.0010330523 0.007998587
-0.02313102 -0.0024141874 -0.026670985 0.025822917 -0.018823108 0.037040275 -0.005522452 -0.016287213
0.021102915 0.010348619 0.03134421 0.023187505 -0.04454257 0.017247198 -0.006437956 -0.014320291
0.029360887 0.03652384 -0.02269793 -0.005028078 0.03431171 0.014499167 0.032911383 -0.0071157
-0.023583155 0.03319399 0.009029438 0.04179383 -0.02684795 -0.019913359 0.0009669162 -0.040986095
0.0042009307 0.029541923 0.008827712 -0.007844218 0.019356254 -0.017060766 0.040889587 -0.031221235
-0.033856247 -0.004740356 0.03077135 0.0054658973 0.018533852 -0.02276721 0.022402102 0.0015969403
0.010720504 0.027227359 0.01749547 -0.001007325 0.0002594587 -0.019877924 -0.0104961675 0.025664221
-0.011837877 0.024655664 -0.013006704 -0.008257962 0.0007383633 -0.032534875 -0.002518584 -0.0059959646
-0.0039454177 -0.006491358 0.028498083 0.03214621 -0.024333863 0.018608812 -0.014596612 -0.028504483
0.0117539065 0.0027004648 -0.016219733 -0.034842465 -0.012047168 0.022882706 -0.034727998 -0.033746324
0.005947207 -0.027897852 -0.030849874 -0.000546451 -0.005404376 -0.032676753 -0.023158977 0.00350702
-0.033326693 0.0018051577 -0.01591206 -0.024935303 0.01551237 -0.026515085 -0.02625484 0.021198392
0.016080912 0.041916188 -0.009505478 -0.016628806 -0.002973302 -0.0022091633 0.02507089 -0.03771184
-0.0044369614 0.013843152 -0.022055404 -0.019362234 0.01964792 -0.0268932 0.013599062 -0.023393156
0.0201421 -0.02707406 0.02082702 -0.02685395 -0.030786617 -0.0051310537 0.037135664 -0.02778436
-0.010786389 0.031330217 -7.3628005e-05 0.008934554 -0.029764216 -0.011625068 -0.012056343 0.03160448
0.013503589 -0.019206934 0.010372673 -0.0019734148 -0.017001485 -0.010825621 -0.014339842 0.027563285
-0.028234927 -0.025207171 -0.0033925532 0.0010304456 0.012339325 0.0043664766 -0.00936519 -0.01893502
1.0036107e-05 -0.016007293 0.027565395 -0.032246202 -0.019113233 -0.02910989 -0.0064411876 0.028483396
0.03308653 -0.029991046 -0.0016785478 0.020834778 0.01644288 0.030575996 0.009326873 -0.008651967

bias f4 [32]
00000000: e50c bbbc f8cf ab3b 65ae 483c 22ed 133d
00000010: c51c b63c ed7b 05bd c911 f1bc 32c9 b3bc
00000020: 5ac3 843c 364c 3bbc bd14 95bc c398 0dbc
00000030: b887 1c3c 1b2b 1e3c 332d 64bc 0996 a73c
00000040: 28dc 123d 5d52 ceb9 ea22 a73b 565d 853c
00000050: 3abc 19bc 00ec 6bbc 329d 1bbd dd43 343b
00000060: 04a9 81bc eb15 f3bb 3430 38bd c9d6 bfbc
00000070: eb36 183d 58e9 e9bc 4399 9c3c 1307 18bd
-0.022833297 0.0052432977 0.01224861 0.03611482 0.022230515 -0.032588888 -0.029427426 -0.021946523
0.016206432 -0.011431744 -0.018198365 -0.008642378 0.009553842 0.009653832 -0.013926792 0.020457285
0.03585449 -0.00039352747 0.0051005976 0.016279858 -0.009383256 -0.0143995285 -0.03799171 0.002750627
-0.015827663 -0.0074183843 -0.044967845 -0.023417847 0.03716175 -0.02855365 0.01911605 -0.03711612

weight f4 [10, 32]
00000000: 5d09 a1be 5f94 34be a273 2bbe bf27 cdbc
00000010: a811 0fbe 4dff 52be 37a3 a0be c91a 5fbd
00000020: 05da cfbd cf5c 71be 2600 6e3c 23c0 aa3d
00000030: 9c8a 49be e109 073e 86a9 8ebe 3d5a 3b3d
00000040: b245 63be 300b 4c3d 5be3 79be 9efe 1e3e
00000050: 7e7a 18bd 0a40 b13d d4eb 24bd 6da8 61be
00000060: 0c92 633e 0e1f 833e 510e 013e 398e 76be
00000070: 3279 393e 007a 84bd 44fd 043e 1750 4dbe
00000080: 369e a0be 4b7f 35be 52eb 35be 70c8 b13d
00000090: f8c0 253e 8839 8a3c 6ffa 953b 7a86 0e3d
000000a0: 68b0 4e3e 02aa 513e c66f 823e da2b 6e3e
000000b0: 9fce cabd f633 f13c 364d 263e 332b aa3d
000000c0: dcb1 4bbe 2648 84be d20f c3bd 1931 31be
000000d0: 4c01 20be 0c37 3a3c f6d1 363e dad8 67be
000000e0: 773f 84be bbc7 873d 5762 913e b7f9 c73d
000000f0: 553d c8bd dac1 233e f4e3 04be 5500 393e
00000100: b6b3 ad3d 4873 f2bd 91a6 98be 29fd 6cbd
00000110: 6a46 8dbe 3e1e 143e 09cc 943e 854e 9ebe
00000120: afbf 0c3e dc90 cdbd 4083 24be 06a1 11bd
00000130: 26ad 42be 10b0 efbd 6586 e13d ad2f b03d
00000140: c8a9 443e e2e9 2b3e e308 71be 78b5 b33e
00000150: f4d1 82be 1524 853d 9641 e53d 234c 023e
00000160: 540e f7bd 249d 67be 9ea5 353e e5ab 0bbe
00000170: 2dcc a03e b3f5 61be c8b8 c93d d607 19bd
00000180: 21b7 893e 3ad4 d13b ec6d b5bb b93c a7be
00000190: d3a7 d9bd 20a1 263e fc51 173d 2293 bcbd
000001a0: ab61 8c3c 6d47 f7bd 629e 393d 5d66 2b3e
000001b0: 48a4 6d3e 1369 8f3e a9af d93d 0c7a 4abe
000001c0: 2d2b 8cbe acac 97be cdf0 3bbd d0d6 513e
000001d0: 8f77 853e 4e51 923e 5d74 073e 9253 06be
000001e0: 70de 7bbe e5df 573d d632 fabc f48e 753d
000001f0: 9c0d ddbd 6df1 5cbc 50f7 c8bd 7081 383e
00000200: 6615 73bc ce7f 9ebd 2c37 a03d 9363 2b3d
00000210: aede 71be 1074 24bd fbe1 48be d870 6abd
00000220: 3838 e4be 43f2 093e 08e5 363e c7ab 88be
00000230: 062e 1e3e ac6e 44bd b6f3 843d e4ed 923e
00000240: 6577 bc3d 06a3 bb3e 0d1c 253e 1745 8e3d
00000250: 0fb2 49bb a31a d83d 9dce 0c3e d6f4 74be
00000260: af43 4b3e 0802 9cbe 0855 aebe 641f 9d3d
00000270: b795 8aba 8e1b 943d 7898 8c3d 88e8 153e
00000280: 5e2b 803e f9e7 0e3c 5840 6e3e fb4b 133d
00000290: b6d6 84ba 49fb a23d 62d8 05be 18e0 0bbd
000002a0: 5cba 563e b2a4 903d 7660 30bd 49da 81be
000002b0: fef4 a1be f295 3f3e 2689 113e b46e 373e
000002c0: ec3a 4cbd 98ef 56be 2bf0 7fbe 19f7 5dbe
000002d0: 7cc0 2fbe a086 babb cde8 26bd 48d6 48be
000002e0: 4770 423e 0221 55bd ab18 8ebd c5d4 21be
000002f0: 3751 413e 867f 983e d04d 853e f135 583e
00000300: b113 ad3a 519d 3bbe 42f6 1e3e 746a 24bd
00000310: 276e 593e 81b4 183e 285f 103e 4869 53bd
00000320: b974 60be bcfa 35be 1d07 2fbe 34b2 623e
00000330: c19c febd 3446 193b 7d65 51be edce 8d3d
00000340: e6e7 cfbd 6902 833e 7c65 ddbc 5b85 64be
00000350: e76b 9c3e 8dfd 00be c199 3fbe 2029 d7bc
00000360: 93a0 4bbe 20d8 2d3e 8069 d8bd 8d16 8bbe
00000370: ede8 40be c134 3abe af8e 85be 9e73 5cbe
00000380: b498 a73d 571b 103d 7a72 fbbd b79f 293e
00000390: 86a7 19be b576 d13d ca17 0e3d 8863 b83e
000003a0: 2c0b 3e3d 30c7 193e df1f 1bbe 39ef 363e
000003b0: 18f8 453e 74a8 693e b5ed 033e 1aed d33d
000003c0: 0bd3 233e 2717 4bbe e448 873d c533 413e
000003d0: fbc8 743c e873 7dbe 5afb e5bd b41e 8b3e
000003e0: 2af7 273e 6624 d13d a679 bdbc 4672 3cbe
000003f0: 2a38 813c 1949 d1bc ed40 4dbe 1605 4fbe
-0.31452456 -0.17634724 -0.16743329 -0.025043366 -0.13971579 -0.20605202 -0.31374523 -0.054468904
-0.10149006 -0.2357056 0.014526403 0.083374284 -0.19681782 0.13187362 -0.2786371 0.045740355
-0.22194555 0.049815357 -0.24403135 0.15526816 -0.037226193 0.086547926 -0.040263966 -0.22036906
0.22223681 0.2560963 0.12603118 -0.24077691 0.18112639 -0.06468582 0.12987238 -0.20050083
-0.31370705 -0.1772434 -0.17765549 0.086808085 0.16186893 0.016873136 0.004576973 0.034796216
0.20184481 0.20475009 0.254759 0.23258916 -0.09902691 0.029443722 0.16240391 0.08309021
-0.19892067 -0.25836295 -0.09524502 -0.17303886 -0.15625495 0.011365663 0.17853531 -0.22641316
-0.2582967 0.066298924 0.2839534 0.09764426 -0.09777323 0.15991917 -0.12977582 0.18066533
0.08481543 -0.118383944 -0.2981458 -0.05785862 -0.27592784 0.14464661 0.29061916 -0.3091928
0.13744996 -0.10037395 -0.16065693 -0.035553955 -0.19011363 -0.11703503 0.11011962 0.086028434
0.19205391 0.16788438 -0.23538546 0.35099387 -0.25550807 0.06501023 0.1119415 0.12724356
-0.1206328 -0.22618538 0.17738959 -0.13639791 0.31405774 -0.22066383 0.09849697 -0.03736099
0.2689753 0.006403473 -0.0055367853 -0.32663515 -0.10627713 0.16272402 0.03694342 -0.09207751
0.017136415 -0.1207417 0.04531706 0.16738267 0.232072 0.28009853 0.10629208 -0.1977312
-0.2737669 -0.29623926 -0.045883942 0.204921 0.26067778 0.28577656 0.13227983 -0.13117817
-0.24596572 0.052703757 -0.030541819 0.059950784 -0.107936114 -0.013485295 -0.09812796 0.18018126
-0.014836645 -0.077392206 0.07823023 0.04184301 -0.23620102 -0.04014975 -0.19617455 -0.057236522
-0.44574142 0.13471322 0.17860806 -0.26693556 0.15447244 -0.047957107 0.06491797 0.2869712
0.0920246 0.36647815 0.16123982 0.069467716 -0.0030776297 0.105519556 0.13750692 -0.23921522
0.19850038 -0.304703 -0.3404925 0.07672003 -0.0010573183 0.07231818 0.068650186 0.14639485
0.25033087 0.008722299 0.23266733 0.035961132 -0.001013479 0.07958085 -0.13070825 -0.03414926
0.20969528 0.07062663 -0.043060742 -0.2536185 -0.31632227 0.18709543 0.14212474 0.17913324
-0.04986088 -0.20989835 -0.2499396 -0.21676292 -0.1716327 -0.005692318 -0.04074936 -0.19612992
0.18988143 -0.05203343 -0.06938299 -0.15803821 0.18878637 0.29784793 0.2603593 0.21114327
0.0013204721 -0.1832173 0.15523627 -0.040140584 0.21233426 0.14912607 0.14098799 -0.051614076
-0.21919526 -0.17771429 -0.17092557 0.22138292 -0.12432242 0.0023387792 -0.20448871 0.069242336
-0.10151653 0.25587776 -0.02702593 -0.22316496 0.30551073 -0.12596722 -0.18710996 -0.026264727
-0.19885473 0.16976976 -0.105669975 -0.27165642 -0.18838854 -0.18184187 -0.2608542 -0.2152848
0.08183423 0.035182323 -0.12277694 0.16564833 -0.15005311 0.1022772 0.034690656 0.36013436
0.046397373 0.1501739 -0.15148877 0.17864694 0.19332922 0.22818166 0.12883647 0.10347958
0.15998475 -0.1983305 0.066057 0.18867405 0.014940496 -0.24751246 -0.11229582 0.27171862
0.1640288 0.102120206 -0.023129296 -0.18402967 0.015773851 -0.025547551 -0.20044298 -0.20216784

bias f4 [10]
00000000: 5e16 263e b45d 8cbc 8aeb 283d 2f6b 19bc
00000010: bebf 0e3e 7197 1a3e 8927 7bbc f3be 0f3e
00000020: 156b d53c 054e d33d
0.1621947 -0.017134525 0.041240253 -0.0093639335 0.13940331 0.15096833 -0.01532925 0.14037685
0.026052037 0.103176154
