Algs/Labs-Federated-Learning/variables/model_MNIST_0.pth (torch, 32423 bytes, 2 tensors)

linear.weight f4 [10, 784]
0	0xbcdfec6a	-0.02733441
1	0x3c8a2490	0.016863137
2	0xbcdd6023	-0.02702338
3	0x3c18a964	0.00931773
4	0x3c0eded8	0.008720122
5	0xbcbf88fe	-0.023380753
6	0x3ccde650	0.025134236
7	0x3c1c769c	0.009549763
8	0xbb4f11a0	-0.0031596199
9	0xbc0c1304	-0.008549456
10	0x3be7e968	0.0070773847
11	0xba8821a0	-0.0010385998
12	0x3ca4758a	0.020075578
13	0x3cd25952	0.025677357
14	0x3c6f36b0	0.014600441
15	0xbc9213fa	-0.017831791
16	0xbb89b398	-0.0042023174
17	0x3c9550de	0.018227037
18	0xbd0939a4	-0.033502236
19	0x3b7deb80	0.0038745105
20	0xbcb72fec	-0.022361718
21	0x3cfa6f7e	0.030570742
22	0xbc908dfe	-0.017645832
23	0x3cee2702	0.029071335
24	0xb934f000	-0.00017255545
25	0x3b8d2130	0.004306935
26	0xbbcd91c0	-0.0062734783
27	0xbc8d9817	-0.017284436
28	0x3bed6238	0.0072443746
29	0xbca51903	-0.020153528
30	0xbb4e8480	-0.0031512082
31	0x3d0edeb1	0.034880344
32	0x3c638268	0.013886072
33	0xbc978dfa	-0.018500317
34	0xbcb35285	-0.021889934
35	0x3cd5147c	0.026010744
36	0x3c3f08d8	0.011659823
37	0xbc36c72a	-0.011155883
38	0xbacf52e0	-0.0015817545
39	0x3ce74af6	0.028233986
40	0x3cc26f36	0.02373467
41	0x3cfa8bee	0.030584302
42	0x3cb5da68	0.02219887
43	0x3a1dbb40	0.0006016977
44	0x3b454ea0	0.0030106679
45	0x3cbeea50	0.023305088
46	0xbc97924e	-0.01850238
47	0x3c702e80	0.014659524
48	0xbad47260	-0.0016208403
49	0xbc9ec8fc	-0.019382946
50	0xbc8561d3	-0.016281998
51	0x3c4ef960	0.012632698
52	0x3c6a8ce4	0.0143158175
53	0xbd08ecaf	-0.033428844
54	0x3c0c913c	0.008579548
55	0xbd0317fa	-0.032005288
56	0xbb32f8d0	-0.0027308948
57	0x3af5caa0	0.0018752404
58	0x3bc99080	0.006151259
59	0x3c6bb574	0.0143865235
60	0x3cbb7e0a	0.022887249
61	0x3cdb48da	0.026768137
62	0x3b8a9140	0.004228741
63	0x3c9e23cc	0.019304179
64	0x3c453784	0.012037162
65	0xbb970030	-0.0046081766
66	0xbc56a260	-0.013100237
67	0xbcadf840	-0.021236539
68	0xbceb7593	-0.028742587
69	0x3cd5688c	0.026050828
70	0x3d0727c1	0.032996897
71	0x3adfe240	0.0017080978
72	0x3c232b08	0.00995899
73	0x3be357c8	0.0069379546
74	0x3c2c2444	0.010506693
75	0x3cb5c936	0.022190671
76	0x3cc0713e	0.023491498
77	0xbc63b13c	-0.013897236
78	0xbd04e22b	-0.032442253
79	0xbcbea76a	-0.023273189
80	0x3d06e1af	0.032930072
81	0xbbcd489c	-0.006264759
82	0xbceaf68e	-0.02868202
83	0x3c64c93c	0.013963994
84	0xbce7f191	-0.02831343
85	0xbcd100a5	-0.025513003
86	0xbcc94b00	-0.024571896
87	0x3cc93f8a	0.02456643
88	0x3b2c78b0	0.0026317053
89	0x3cbf4ab8	0.023351058
90	0xbd0be1eb	-0.034151
91	0xbbd59308	-0.0065177716
92	0x3c8f9758	0.017528221
93	0x3c6ba878	0.014383428
94	0xbd005fb2	-0.031341262
95	0xbc49b98e	-0.012312306
96	0x3a63fac0	0.00086967275
97	0xbbfa2fdc	-0.0076351
98	0xbd0fe5ff	-0.03513145
99	0x3c21fdc4	0.009887163
100	0x381e9400	3.780797e-05
101	0xbc22d59c	-0.009938624
102	0x3ca49690	0.020091325
103	0xbce6789a	-0.02813368
104	0xbcd7c89e	-0.026340779
105	0xbc8a73a3	-0.016900843
106	0xbc22a898	-0.009927891
107	0x3cbf4610	0.023348838
108	0x3bdc85c0	0.0067298114
109	0xbc78aae0	-0.0151774585
110	0xbce8e943	-0.02843154
111	0x3d07f00f	0.033187922
112	0xba98bc40	-0.0011652783
113	0x3c8a3520	0.016871035
114	0x3ac65800	0.0015132427
115	0xbb082f90	-0.0020780303
116	0x3cc09590	0.023508817
117	0xbc6131fc	-0.013744827
118	0xbd08734a	-0.033313073
119	0xbcda17aa	-0.026622612
120	0xbd09ec4c	-0.033672616
121	0xbcc73fea	-0.024322469
122	0xbca26783	-0.019824749
123	0xba5ed240	-0.00084999576
124	0x3cb922fa	0.022599686
125	0x3c916c2c	0.017751776
126	0xbc183b66	-0.009291505
127	0xbaa0ff20	-0.0012283064
128	0x3cf87fb2	0.030334327
129	0x3cdc3896	0.026882451
130	0x3bca6708	0.006176833
131	0xbcc6dd83	-0.024275547
132	0xbb4e1e80	-0.0031451285
133	0xbd006127	-0.03134265
134	0xbc90c813	-0.017673528
135	0xbc293b18	-0.01032903
136	0xbd0af1c2	-0.033921964
137	0xbccee22e	-0.025254335
138	0x3bdf00b0	0.006805502
139	0xbab39060	-0.0013699643
140	0x3cd5cc78	0.026098475
141	0x3cd9fa30	0.026608557
142	0xbce5f028	-0.028068617
143	0x3cd5ccb8	0.026098594
144	0xbcbcb9d8	-0.023037836
145	0xbb6e2960	-0.003634058
146	0xbc626118	-0.013817094
147	0x3c90a302	0.017655853
148	0x3c8e185e	0.017345604
149	0x3ca0d210	0.019631416
150	0xbcbf5ac0	-0.023358703
151	0x3d0c7c3d	0.03429817
152	0xbcb3fac3	-0.021970158
153	0xbc867190	-0.016411573
154	0xbcc964e8	-0.024584249
155	0xbc5adfe6	-0.013359046
156	0x3cb41f7c	0.02198767
157	0x3cc80b3c	0.02441942
158	0xbd0b874b	-0.034064572
159	0xbbfb2f00	-0.007665515
160	0xbcc5067a	-0.02405094
161	0x3b13c820	0.0022549704
162	0xbc82df0c	-0.015975498
163	0xbcd760ea	-0.02629133
164	0xbc5109f2	-0.012758719
165	0xbc7fee58	-0.01562079
166	0x3c922630	0.017840475
167	0x3cea162e	0.02857503
168	0xbb99eec8	-0.0046976544
169	0x3b1a6780	0.0023560226
170	0xbcc39aa3	-0.023877447
171	0x3caddafe	0.021222588
172	0x3bc748e0	0.0060816854
173	0x3caa0e9a	0.020758916
174	0xbd05c0fc	-0.032654747
175	0x3c446df8	0.011989109
176	0xbc327a6a	-0.010893444
177	0xbca69c5c	-0.02033823
178	0xbcc7c75c	-0.024387054
179	0xbc959fe7	-0.018264724
180	0xbcfd898e	-0.03094938
181	0x39015600	0.00012334436
182	0x3a4f50c0	0.0007908456
183	0xbd0191dc	-0.031633243
184	0x3bc220b8	0.0059243105
185	0xbc899523	-0.016794747
186	0x3b281f90	0.0025653578
187	0xbc0228d8	-0.007944308
188	0x3d06f9f3	0.032953214
189	0x3cbc0de0	0.022955835
190	0xbc1dec0e	-0.009638799
191	0x3c332e24	0.010936294
192	0x3d0a2395	0.03372534
193	0xbd018e77	-0.031630006
194	0x3bceae88	0.006307427
195	0x3cf42a46	0.029805314
196	0x3c76d4c4	0.015065376
197	0xbb1fc350	-0.002437789
198	0x3d0ef05f	0.034897204
199	0xbc37e6a0	-0.011224419
200	0xbccf95ee	-0.025340047
201	0xbcc442b8	-0.023957595
202	0x3c91fc6a	0.017820556
203	0x3cd69506	0.026194107
204	0x3b285d30	0.002569031
205	0xbc46d02a	-0.012134591
206	0x3acb4ac0	0.0015509948
207	0x3cba0f06	0.022712242
208	0x3ce432ea	0.027856309
209	0xbcce15fa	-0.025156964
210	0xbcae6215	-0.021287004
211	0x3a914600	0.0011083484
212	0x3c54f540	0.012997925
213	0xbca8f2c5	-0.020623574
214	0xbc92e655	-0.017932096
215	0x3cf1815e	0.029480632
216	0x3c2aebd4	0.010432202
217	0xbb4f1900	-0.0031600595
218	0xbce7f72c	-0.028316103
219	0x3d03ebff	0.032207485
220	0x3cdd1ce6	0.026991319
221	0x3d0dd85d	0.03463017
222	0xbd0e44db	-0.034733634
223	0xbd0e7625	-0.03478064
224	0xbccc5bbe	-0.02494609
225	0xbcaef6dc	-0.021357946
226	0xbcbea2f0	-0.023271054
227	0x3c941dcc	0.018080615
228	0xbcc33c35	-0.02383242
229	0x3c90cc1a	0.017675448
230	0x3c810958	0.015751526
231	0xbc902a3e	-0.017598268
232	0xbcd247aa	-0.025668938
233	0xbd028f6e	-0.031875066
234	0x3cf88576	0.030337077
235	0x3d0f4777	0.034980264
236	0xbcfc3d55	-0.030790964
237	0x3b95a090	0.0045662597
238	0x3be6bb30	0.0070413575
239	0x3caa44c2	0.02078474
240	0xbc53ba46	-0.012922829
241	0xbc55bbae	-0.013045235
242	0xb90f2600	-0.00013651699
243	0xbc9da7d7	-0.019245071
244	0x3cd7ddd0	0.026350886
245	0xbc1fa1ca	-0.009743163
246	0x3ca121f2	0.019669507
247	0x3cff0286	0.031129133
248	0xbc75f18e	-0.015011204
249	0x3cfd5102	0.030922417
250	0xbc9c4113	-0.019073999
251	0xbc6479dc	-0.013945069
252	0x3ccbb1e0	0.02486509
253	0x3aca6a40	0.0015443042
254	0x3c972e16	0.018454593
255	0xbcaffcf3	-0.02148292

linear.bias f4 [10]
0	0x3cf54072	0.029937956
1	0xbcbcd7ce	-0.023052122
2	0xbb15d380	-0.002286166
3	0x3cf4daee	0.02988955
4	0xbd025410	-0.03181845
5	0x3d0b43f9	0.03400037
6	0x3cedbdfe	0.02902126
7	0x3cbdeaaa	0.023183186
8	0x3cd1e586	0.02562214
9	0x3cc9b610	0.024622947
